name: "DbgNet"
layers {
  name: "data"
  type: HDF5_DATA
  top: "data"
  top: "label"
  hdf5_data_param {
    source: "dev.net.trn"
    batch_size: 937		# 76834=82*937,41*1874
  }
  include: { phase: TRAIN }
}
layers {
  name: "data"
  type: HDF5_DATA
  top: "data"
  top: "label"
  hdf5_data_param {
    source: "dev.net.tst"
    batch_size: 937
  }
  include: { phase: TEST }
}
layers {
  name: "fc1"
  type: INNER_PRODUCT
  bottom: "data"
  top: "fc1"
#  blobs_lr: 1
#  blobs_lr: 2
  weight_decay: 1
  weight_decay: 0
  inner_product_param {
    num_output: 20000
    weight_filler {
      type: "gaussian"
      std: 0.01
    }
    bias_filler {
      type: "constant"
      value: 0
    }
  }
}
layers {
  name: "activation"
  type: RELU
  bottom: "fc1"
  top: "fc1"
}
layers {
  name: "fc2"
  type: INNER_PRODUCT
  bottom: "fc1"
  top: "fc2"
#  blobs_lr: 1
#  blobs_lr: 2
  weight_decay: 1
  weight_decay: 0
  inner_product_param {
    num_output: 3
    weight_filler {
      type: "gaussian"
      std: 0.01
    }
    bias_filler {
      type: "constant"
      value: 0
    }
  }
}
layers {
  name: "loss"
  type: SOFTMAX_LOSS
  bottom: "fc2"
  bottom: "label"
  top: "loss"
}
layers {
  name: "accuracy"
  type: ACCURACY
  bottom: "fc2"
  bottom: "label"
  top: "accuracy"
  include: { phase: TEST }
}
